Model: "sequential"
_________________________________________________________________
 Layer (type)                Output Shape              Param #   
=================================================================
 dense (Dense)               (None, 64)                1728      
                                                                 
 dense_1 (Dense)             (None, 64)                4160      
                                                                 
 dropout (Dropout)           (None, 64)                0         
                                                                 
 dense_2 (Dense)             (None, 5)                 325       
                                                                 
 activation (Activation)     (None, 5)                 0         
                                                                 
=================================================================
Total params: 6,213
Trainable params: 6,213
Non-trainable params: 0
_________________________________________________________________
Model: "sequential_1"
_________________________________________________________________
 Layer (type)                Output Shape              Param #   
=================================================================
 dense_3 (Dense)             (None, 64)                1728      
                                                                 
 dense_4 (Dense)             (None, 64)                4160      
                                                                 
 dropout_1 (Dropout)         (None, 64)                0         
                                                                 
 dense_5 (Dense)             (None, 5)                 325       
                                                                 
 activation_1 (Activation)   (None, 5)                 0         
                                                                 
=================================================================
Total params: 6,213
Trainable params: 6,213
Non-trainable params: 0
_________________________________________________________________
2
1/1 [==============================] - ETA: 0s1/1 [==============================] - 0s 56ms/step
…
